____________________________________________________________________________________________________
Layer (type)                     Output Shape          Param #     Connected to                     
====================================================================================================
unet_input (InputLayer)          (None, 3, 256, 256)   0                                            
____________________________________________________________________________________________________
unet_conv2D_1 (Convolution2D)    (None, 64, 128, 128)  1792        unet_input[0][0]                 
____________________________________________________________________________________________________
leakyrelu_1 (LeakyReLU)          (None, 64, 128, 128)  0           unet_conv2D_1[0][0]              
____________________________________________________________________________________________________
unet_conv2D_2 (Convolution2D)    (None, 128, 64, 64)   73856       leakyrelu_1[0][0]                
____________________________________________________________________________________________________
batchnormalization_1 (BatchNormal(None, 128, 64, 64)   256         unet_conv2D_2[0][0]              
____________________________________________________________________________________________________
leakyrelu_2 (LeakyReLU)          (None, 128, 64, 64)   0           batchnormalization_1[0][0]       
____________________________________________________________________________________________________
unet_conv2D_3 (Convolution2D)    (None, 256, 32, 32)   295168      leakyrelu_2[0][0]                
____________________________________________________________________________________________________
batchnormalization_2 (BatchNormal(None, 256, 32, 32)   512         unet_conv2D_3[0][0]              
____________________________________________________________________________________________________
leakyrelu_3 (LeakyReLU)          (None, 256, 32, 32)   0           batchnormalization_2[0][0]       
____________________________________________________________________________________________________
unet_conv2D_4 (Convolution2D)    (None, 512, 16, 16)   1180160     leakyrelu_3[0][0]                
____________________________________________________________________________________________________
batchnormalization_3 (BatchNormal(None, 512, 16, 16)   1024        unet_conv2D_4[0][0]              
____________________________________________________________________________________________________
leakyrelu_4 (LeakyReLU)          (None, 512, 16, 16)   0           batchnormalization_3[0][0]       
____________________________________________________________________________________________________
unet_conv2D_5 (Convolution2D)    (None, 512, 8, 8)     2359808     leakyrelu_4[0][0]                
____________________________________________________________________________________________________
batchnormalization_4 (BatchNormal(None, 512, 8, 8)     1024        unet_conv2D_5[0][0]              
____________________________________________________________________________________________________
leakyrelu_5 (LeakyReLU)          (None, 512, 8, 8)     0           batchnormalization_4[0][0]       
____________________________________________________________________________________________________
unet_conv2D_6 (Convolution2D)    (None, 512, 4, 4)     2359808     leakyrelu_5[0][0]                
____________________________________________________________________________________________________
batchnormalization_5 (BatchNormal(None, 512, 4, 4)     1024        unet_conv2D_6[0][0]              
____________________________________________________________________________________________________
leakyrelu_6 (LeakyReLU)          (None, 512, 4, 4)     0           batchnormalization_5[0][0]       
____________________________________________________________________________________________________
unet_conv2D_7 (Convolution2D)    (None, 512, 2, 2)     2359808     leakyrelu_6[0][0]                
____________________________________________________________________________________________________
batchnormalization_6 (BatchNormal(None, 512, 2, 2)     1024        unet_conv2D_7[0][0]              
____________________________________________________________________________________________________
leakyrelu_7 (LeakyReLU)          (None, 512, 2, 2)     0           batchnormalization_6[0][0]       
____________________________________________________________________________________________________
unet_conv2D_8 (Convolution2D)    (None, 512, 1, 1)     2359808     leakyrelu_7[0][0]                
____________________________________________________________________________________________________
batchnormalization_7 (BatchNormal(None, 512, 1, 1)     1024        unet_conv2D_8[0][0]              
____________________________________________________________________________________________________
activation_1 (Activation)        (None, 512, 1, 1)     0           batchnormalization_7[0][0]       
____________________________________________________________________________________________________
upsampling2d_1 (UpSampling2D)    (None, 512, 2, 2)     0           activation_1[0][0]               
____________________________________________________________________________________________________
unet_upconv2D_1 (Convolution2D)  (None, 512, 2, 2)     2359808     upsampling2d_1[0][0]             
____________________________________________________________________________________________________
batchnormalization_8 (BatchNormal(None, 512, 2, 2)     1024        unet_upconv2D_1[0][0]            
____________________________________________________________________________________________________
dropout_1 (Dropout)              (None, 512, 2, 2)     0           batchnormalization_8[0][0]       
____________________________________________________________________________________________________
merge_1 (Merge)                  (None, 1024, 2, 2)    0           dropout_1[0][0]                  
                                                                   batchnormalization_6[0][0]       
____________________________________________________________________________________________________
activation_2 (Activation)        (None, 1024, 2, 2)    0           merge_1[0][0]                    
____________________________________________________________________________________________________
upsampling2d_2 (UpSampling2D)    (None, 1024, 4, 4)    0           activation_2[0][0]               
____________________________________________________________________________________________________
unet_upconv2D_2 (Convolution2D)  (None, 512, 4, 4)     4719104     upsampling2d_2[0][0]             
____________________________________________________________________________________________________
batchnormalization_9 (BatchNormal(None, 512, 4, 4)     1024        unet_upconv2D_2[0][0]            
____________________________________________________________________________________________________
dropout_2 (Dropout)              (None, 512, 4, 4)     0           batchnormalization_9[0][0]       
____________________________________________________________________________________________________
merge_2 (Merge)                  (None, 1024, 4, 4)    0           dropout_2[0][0]                  
                                                                   batchnormalization_5[0][0]       
____________________________________________________________________________________________________
activation_3 (Activation)        (None, 1024, 4, 4)    0           merge_2[0][0]                    
____________________________________________________________________________________________________
upsampling2d_3 (UpSampling2D)    (None, 1024, 8, 8)    0           activation_3[0][0]               
____________________________________________________________________________________________________
unet_upconv2D_3 (Convolution2D)  (None, 512, 8, 8)     4719104     upsampling2d_3[0][0]             
____________________________________________________________________________________________________
batchnormalization_10 (BatchNorma(None, 512, 8, 8)     1024        unet_upconv2D_3[0][0]            
____________________________________________________________________________________________________
dropout_3 (Dropout)              (None, 512, 8, 8)     0           batchnormalization_10[0][0]      
____________________________________________________________________________________________________
merge_3 (Merge)                  (None, 1024, 8, 8)    0           dropout_3[0][0]                  
                                                                   batchnormalization_4[0][0]       
____________________________________________________________________________________________________
activation_4 (Activation)        (None, 1024, 8, 8)    0           merge_3[0][0]                    
____________________________________________________________________________________________________
upsampling2d_4 (UpSampling2D)    (None, 1024, 16, 16)  0           activation_4[0][0]               
____________________________________________________________________________________________________
unet_upconv2D_4 (Convolution2D)  (None, 256, 16, 16)   2359552     upsampling2d_4[0][0]             
____________________________________________________________________________________________________
batchnormalization_11 (BatchNorma(None, 256, 16, 16)   512         unet_upconv2D_4[0][0]            
____________________________________________________________________________________________________
merge_4 (Merge)                  (None, 768, 16, 16)   0           batchnormalization_11[0][0]      
                                                                   batchnormalization_3[0][0]       
____________________________________________________________________________________________________
activation_5 (Activation)        (None, 768, 16, 16)   0           merge_4[0][0]                    
____________________________________________________________________________________________________
upsampling2d_5 (UpSampling2D)    (None, 768, 32, 32)   0           activation_5[0][0]               
____________________________________________________________________________________________________
unet_upconv2D_5 (Convolution2D)  (None, 128, 32, 32)   884864      upsampling2d_5[0][0]             
____________________________________________________________________________________________________
batchnormalization_12 (BatchNorma(None, 128, 32, 32)   256         unet_upconv2D_5[0][0]            
____________________________________________________________________________________________________
merge_5 (Merge)                  (None, 384, 32, 32)   0           batchnormalization_12[0][0]      
                                                                   batchnormalization_2[0][0]       
____________________________________________________________________________________________________
activation_6 (Activation)        (None, 384, 32, 32)   0           merge_5[0][0]                    
____________________________________________________________________________________________________
upsampling2d_6 (UpSampling2D)    (None, 384, 64, 64)   0           activation_6[0][0]               
____________________________________________________________________________________________________
unet_upconv2D_6 (Convolution2D)  (None, 64, 64, 64)    221248      upsampling2d_6[0][0]             
____________________________________________________________________________________________________
batchnormalization_13 (BatchNorma(None, 64, 64, 64)    128         unet_upconv2D_6[0][0]            
____________________________________________________________________________________________________
merge_6 (Merge)                  (None, 192, 64, 64)   0           batchnormalization_13[0][0]      
                                                                   batchnormalization_1[0][0]       
____________________________________________________________________________________________________
activation_7 (Activation)        (None, 192, 64, 64)   0           merge_6[0][0]                    
____________________________________________________________________________________________________
upsampling2d_7 (UpSampling2D)    (None, 192, 128, 128) 0           activation_7[0][0]               
____________________________________________________________________________________________________
unet_upconv2D_7 (Convolution2D)  (None, 64, 128, 128)  110656      upsampling2d_7[0][0]             
____________________________________________________________________________________________________
batchnormalization_14 (BatchNorma(None, 64, 128, 128)  128         unet_upconv2D_7[0][0]            
____________________________________________________________________________________________________
merge_7 (Merge)                  (None, 128, 128, 128) 0           batchnormalization_14[0][0]      
                                                                   unet_conv2D_1[0][0]              
____________________________________________________________________________________________________
activation_8 (Activation)        (None, 128, 128, 128) 0           merge_7[0][0]                    
____________________________________________________________________________________________________
upsampling2d_8 (UpSampling2D)    (None, 128, 256, 256) 0           activation_8[0][0]               
____________________________________________________________________________________________________
last_conv (Convolution2D)        (None, 3, 256, 256)   3459        upsampling2d_8[0][0]             
____________________________________________________________________________________________________
activation_9 (Activation)        (None, 3, 256, 256)   0           last_conv[0][0]                  
====================================================================================================
Total params: 26377987
____________________________________________________________________________________________________
None
PatchGAN summary
____________________________________________________________________________________________________
Layer (type)                     Output Shape          Param #     Connected to                     
====================================================================================================
discriminator_input (InputLayer) (None, 3, 64, 64)     0                                            
____________________________________________________________________________________________________
disc_conv2d_1 (Convolution2D)    (None, 64, 32, 32)    1792        discriminator_input[0][0]        
____________________________________________________________________________________________________
batchnormalization_15 (BatchNorma(None, 64, 32, 32)    128         disc_conv2d_1[0][0]              
____________________________________________________________________________________________________
leakyrelu_8 (LeakyReLU)          (None, 64, 32, 32)    0           batchnormalization_15[0][0]      
____________________________________________________________________________________________________
disc_conv2d_2 (Convolution2D)    (None, 128, 16, 16)   73856       leakyrelu_8[0][0]                
____________________________________________________________________________________________________
batchnormalization_16 (BatchNorma(None, 128, 16, 16)   256         disc_conv2d_2[0][0]              
____________________________________________________________________________________________________
leakyrelu_9 (LeakyReLU)          (None, 128, 16, 16)   0           batchnormalization_16[0][0]      
____________________________________________________________________________________________________
disc_conv2d_3 (Convolution2D)    (None, 256, 8, 8)     295168      leakyrelu_9[0][0]                
____________________________________________________________________________________________________
batchnormalization_17 (BatchNorma(None, 256, 8, 8)     512         disc_conv2d_3[0][0]              
____________________________________________________________________________________________________
leakyrelu_10 (LeakyReLU)         (None, 256, 8, 8)     0           batchnormalization_17[0][0]      
____________________________________________________________________________________________________
disc_conv2d_4 (Convolution2D)    (None, 512, 4, 4)     1180160     leakyrelu_10[0][0]               
____________________________________________________________________________________________________
batchnormalization_18 (BatchNorma(None, 512, 4, 4)     1024        disc_conv2d_4[0][0]              
____________________________________________________________________________________________________
leakyrelu_11 (LeakyReLU)         (None, 512, 4, 4)     0           batchnormalization_18[0][0]      
____________________________________________________________________________________________________
disc_conv2d_5 (Convolution2D)    (None, 512, 2, 2)     2359808     leakyrelu_11[0][0]               
____________________________________________________________________________________________________
batchnormalization_19 (BatchNorma(None, 512, 2, 2)     1024        disc_conv2d_5[0][0]              
____________________________________________________________________________________________________
leakyrelu_12 (LeakyReLU)         (None, 512, 2, 2)     0           batchnormalization_19[0][0]      
____________________________________________________________________________________________________
disc_conv2d_6 (Convolution2D)    (None, 512, 1, 1)     2359808     leakyrelu_12[0][0]               
____________________________________________________________________________________________________
batchnormalization_20 (BatchNorma(None, 512, 1, 1)     1024        disc_conv2d_6[0][0]              
____________________________________________________________________________________________________
leakyrelu_13 (LeakyReLU)         (None, 512, 1, 1)     0           batchnormalization_20[0][0]      
____________________________________________________________________________________________________
flatten_1 (Flatten)              (None, 512)           0           leakyrelu_13[0][0]               
____________________________________________________________________________________________________
disc_dense (Dense)               (None, 2)             1026        flatten_1[0][0]                  
====================================================================================================
Total params: 6275586
____________________________________________________________________________________________________
____________________________________________________________________________________________________
Layer (type)                     Output Shape          Param #     Connected to                     
====================================================================================================
disc_input_0 (InputLayer)        (None, 3, 64, 64)     0                                            
____________________________________________________________________________________________________
disc_input_1 (InputLayer)        (None, 3, 64, 64)     0                                            
____________________________________________________________________________________________________
disc_input_2 (InputLayer)        (None, 3, 64, 64)     0                                            
____________________________________________________________________________________________________
disc_input_3 (InputLayer)        (None, 3, 64, 64)     0                                            
____________________________________________________________________________________________________
disc_input_4 (InputLayer)        (None, 3, 64, 64)     0                                            
____________________________________________________________________________________________________
disc_input_5 (InputLayer)        (None, 3, 64, 64)     0                                            
____________________________________________________________________________________________________
disc_input_6 (InputLayer)        (None, 3, 64, 64)     0                                            
____________________________________________________________________________________________________
disc_input_7 (InputLayer)        (None, 3, 64, 64)     0                                            
____________________________________________________________________________________________________
disc_input_8 (InputLayer)        (None, 3, 64, 64)     0                                            
____________________________________________________________________________________________________
disc_input_9 (InputLayer)        (None, 3, 64, 64)     0                                            
____________________________________________________________________________________________________
disc_input_10 (InputLayer)       (None, 3, 64, 64)     0                                            
____________________________________________________________________________________________________
disc_input_11 (InputLayer)       (None, 3, 64, 64)     0                                            
____________________________________________________________________________________________________
disc_input_12 (InputLayer)       (None, 3, 64, 64)     0                                            
____________________________________________________________________________________________________
disc_input_13 (InputLayer)       (None, 3, 64, 64)     0                                            
____________________________________________________________________________________________________
disc_input_14 (InputLayer)       (None, 3, 64, 64)     0                                            
____________________________________________________________________________________________________
disc_input_15 (InputLayer)       (None, 3, 64, 64)     0                                            
____________________________________________________________________________________________________
PatchGAN (Model)                 [(None, 2), (None, 5126275586     disc_input_0[0][0]               
                                                                   disc_input_1[0][0]               
                                                                   disc_input_2[0][0]               
…
